model.pt (torch, 208866 bytes, 44 tensors)

conv1_rgb.weight f4 [64, 3, 7, 7]
0	0x3d2fba8e	0.04290252
1	0x3d3adf56	0.045623146
2	0x3d46f12a	0.048569836
3	0xbccd778a	-0.025081415
4	0x3cc98682	0.024600271
5	0x3d51dc99	0.05123577
6	0x3d8d847a	0.069100335
7	0x3d65e668	0.056127936
8	0xbcfad833	-0.03062067
9	0xbe115e09	-0.14196028
10	0xbde48acb	-0.11159285
11	0xbd11bf37	-0.035582747
12	0x3d87e40b	0.066352926
13	0x3c667baa	0.01406757
14	0xbabdfdb3	-0.0014495164
15	0xbe15a059	-0.14611949
16	0xbe0c8d2b	-0.13725726
17	0x3e6057f8	0.21908557
18	0x3e420548	0.18947327
19	0x3d96be8c	0.07360563
20	0x3e34a2c7	0.1764022
21	0x3c9cc678	0.019137606
22	0xbd6806a6	-0.056646965
23	0x3e739c3d	0.23790069
24	0x3ebd9588	0.37028146
25	0xbdcdf668	-0.10056764
26	0xbdb2af45	-0.08724836
27	0xbd0d189d	-0.0344473
28	0xbd1f0015	-0.038818438
29	0x3e0f0e64	0.13970333
30	0x3e3d5652	0.1848996
31	0xbd89572a	-0.06706078
32	0xbe573f0c	-0.21020144
33	0xbd89b46a	-0.067238644
34	0xbc41aa15	-0.011820336
35	0x3c91fd4a	0.017820973
36	0x3e1b9511	0.15193583
37	0x3c6d0abc	0.014467891
38	0xbdf8f828	-0.12156707
39	0x3d54ad6a	0.051923193
40	0x3d05d2c3	0.0326717
41	0x3c6cee9b	0.014461185
42	0x3c624797	0.013811014
43	0x3bdd24ee	0.006748787
44	0xbd8b050a	-0.067880705
45	0xbc0dda76	-0.008658042
46	0x3cebcb27	0.028783394
47	0xbdc72df2	-0.0972556
48	0xbd413949	-0.047173772
49	0x3ce14d32	0.02750263
50	0x3cab503f	0.020912288
51	0xbb9f2535	-0.0048567303
52	0xbd8cb27b	-0.0686998
53	0x3cacfdb8	0.021117076
54	0x3d643fd4	0.055724934
55	0x3d5d1098	0.053970903
56	0x3cf710df	0.030159412
57	0xbd91e5d4	-0.07123914
58	0xbe53884e	-0.20657465
59	0xbe02ff13	-0.12792616
60	0xbbedf2a0	-0.007261589
61	0x3dbabc80	0.09117985
62	0x3c498ffa	0.012302393
63	0xbd3cb444	-0.046070352
64	0xbe53fb9a	-0.20701447
65	0xbe17bd13	-0.1481822
66	0x3e8c0a62	0.2735167
67	0x3e623402	0.22090152
68	0x3d5e26df	0.05423629
69	0x3e0b311f	0.13592957
70	0xbc545a2a	-0.01296095
71	0xbd507989	-0.050897155
72	0x3e962b42	0.29329878
73	0x3edaa888	0.42706704
74	0xbdc26c6b	-0.09493335
75	0xbe08f98f	-0.13376449
76	0xbdb96f22	-0.090544
77	0xbd215a93	-0.03939302
78	0x3e1208fc	0.1426124
79	0x3e48ea0a	0.19620529
80	0xbd8e7239	-0.0695538
81	0xbe7ed642	-0.2488642
82	0xbde9f692	-0.11423983
83	0xbd3cb469	-0.04607049
84	0x3c9ef7de	0.019405302
85	0x3e11f2d2	0.14252785
86	0xbb8749f5	-0.0041286894
87	0xbe234430	-0.1594398
88	0x3c1b1657	0.009465775
89	0x3c31891f	0.010835915
90	0x3c177f8c	0.009246718
91	0x3ce8ee82	0.028434042
92	0x3caa1936	0.020763975
93	0xbda14b58	-0.07875699
94	0xbd162983	-0.036660682
95	0x3c9f7175	0.01946328
96	0xbdbd2afe	-0.09236716
97	0xbd58ba44	-0.05291201
98	0x3d324e55	0.043531734
99	0x3d23c998	0.039987177
100	0x3ccbe2e3	0.024888461
101	0xbd4a6834	-0.049415782
102	0x3d203565	0.03911342
103	0x3d79e88b	0.061012786
104	0x3cf7559c	0.030192189
105	0x3d491e11	0.04910094
106	0xbcc75e73	-0.02433703
107	0xbe16ea31	-0.14737774
108	0xbd979265	-0.074009694
109	0x3ccacdb9	0.0247563
110	0x3dc40794	0.09571758
111	0x3cf9930d	0.030465627
112	0xbd51e6dc	-0.051245555
113	0xbdee4c7a	-0.116356805
114	0xbdbfd38b	-0.093665205
115	0x3e00dc50	0.12584043
116	0x3df12067	0.117737584
117	0x3d5a55c4	0.05330445
118	0x3d96de3d	0.07366607
119	0xbd8d6f98	-0.069060504
120	0xbd97283f	-0.07380723
121	0x3e6caef5	0.23113616
122	0x3e886aa9	0.26643875
123	0xbd863512	-0.06553091
124	0xbdbee10c	-0.09320268
125	0xbd888ae4	-0.06667116
126	0xbccc40eb	-0.024933299
127	0x3dee6507	0.11640363
128	0x3e2dd104	0.16974264
129	0xbcacc08c	-0.021087907
130	0xbdb2d3c4	-0.08731797
131	0xbc8b594a	-0.01701035
132	0x3d10b257	0.035326328
133	0x3c5c1158	0.013431869
134	0x3e065291	0.13117434
135	0x3d26d031	0.04072589
136	0x3c98eb8e	0.018667009
137	0x3dfeb025	0.12435941
138	0x3dc5a3b3	0.09650364
139	0x3d374a8d	0.04474883
140	0x3c6009e8	0.013674237
141	0x3d440886	0.04785969
142	0x3be12561	0.006870911
143	0x3d9ac09d	0.07556269
144	0x3da0489f	0.078263514
145	0x3c57de16	0.013175508
146	0xb960b3dc	-0.00021429308
147	0xbd30874f	-0.04309779
148	0xbc8678da	-0.016415048
149	0xbbdeb6b9	-0.0067966846
150	0x3cd9331a	0.026513625
151	0x3cda95d4	0.026682772
152	0x3d04b6e1	0.03240097
153	0x3c7a6aa3	0.015284213
154	0x3c93a626	0.018023562
155	0xbcea1a4c	-0.028576992
156	0x3d32652a	0.04355351
157	0x3c82f336	0.015985113
158	0x3d0d8065	0.034546275
159	0xbcf41406	-0.029794704
160	0xbd363c4c	-0.044491097
161	0x3cac6453	0.021043932
162	0xbc28b28d	-0.010296476
163	0x3d07ad3a	0.033124186
164	0x3c5cd5c5	0.013478701
165	0x3c1312c1	0.008976639
166	0x3d611e4f	0.054960545
167	0xbd04c2b4	-0.032412246
168	0x3d15be13	0.036558222
169	0x3dc24ebc	0.09487674
170	0x3d9882a7	0.07446795
171	0x3da8aab2	0.082356825
172	0x3d1c5a6d	0.038172174
173	0xbc6aad8f	-0.014323606
174	0xbd514ec1	-0.051100496
175	0xbcbcc1a2	-0.02304155
176	0x3cc6eb5b	0.024282148
177	0x3daf1d08	0.08550459
178	0x3da9f43b	0.082985364
179	0x3c02d06f	0.007984265
180	0xbbdf32b7	-0.0068114656
181	0xbceb45ba	-0.028719772
182	0x3be10c51	0.0068679233
183	0xbc1563a1	-0.009117992
184	0x3d420ea2	0.047377236
185	0x3c21f360	0.009884685
186	0x3d15dfae	0.03659027
187	0x3c665410	0.014058128
188	0x3d46ca8c	0.048533008
189	0xbd4d988b	-0.050194304
190	0x3b8ee46c	0.004360726
191	0x3b83e394	0.004024932
192	0xbb899c6b	-0.0041995547
193	0xbc922842	-0.017841462
194	0xbd2fa554	-0.04288228
195	0x3cea960f	0.028636007
196	0xbcdae820	-0.026722014
197	0xbc4ddd5b	-0.012564982
198	0xbc96d943	-0.018414145
199	0x3c24fb8e	0.010069741
200	0x3b9bbe43	0.0047529056
201	0x3cc7abe7	0.024373962
202	0x3c10647d	0.008813021
203	0x3cc942c5	0.024567971
204	0xbd0e0085	-0.034668464
205	0x3cd71a5d	0.026257688
206	0xbb8969f2	-0.004193538
207	0x3c33dee5	0.010978435
208	0xbd417cc9	-0.047238145
209	0xbd3c3495	-0.045948584
210	0x3cef19fc	0.029187195
211	0xbc9bc76c	-0.01901599
212	0x3c96ef5c	0.018424682
213	0xbc5e86d5	-0.013581951
214	0xbc8db4c5	-0.017298112
215	0x3d2b5c76	0.041836224
216	0xbd4ba91d	-0.049721826
217	0x3d47fc41	0.048824552
218	0x3db181f3	0.08667364
219	0x3d719d60	0.058987975
220	0x3d72d9ba	0.05928967
221	0x3cd5c2e4	0.026093908
222	0xbcd76377	-0.026292546
223	0xbd67377b	-0.056449395
224	0xbbfaaf74	-0.00765031
225	0x3cbc1838	0.022960767
226	0x3d8d168b	0.06889065
227	0x3d54750a	0.05186943
228	0xbba640fc	-0.0050736647
229	0xbc10ef6d	-0.008846146
230	0xbd3dde92	-0.046354838
231	0x3cc8b098	0.024498269
232	0x3a33e89e	0.0006862971
233	0x3cfa9e11	0.03059295
234	0xbc31d84c	-0.010854792
235	0x3cdf7003	0.027275091
236	0x3bad5607	0.0052897963
237	0x3d313d7f	0.043271538
238	0xbcc690cf	-0.024238972
239	0x3d0775b2	0.033071227
240	0x3cc4c7da	0.024021078
241	0x3b87b214	0.0041411016
242	0xbc5ea11b	-0.013588215
243	0xbd135d62	-0.03597773
244	0x3cae174e	0.021251347
245	0xbbc73917	-0.0060798037
246	0x3cac4ca6	0.021032643
247	0x3d1e128e	0.038591914
248	0x3d731d4b	0.059354108
249	0x3d630953	0.055428814
250	0x3d560ded	0.052259374
251	0x3cec0532	0.028811071
252	0x3d5d4073	0.05401654
253	0x3c3dc33f	0.011582195
254	0x3d4dc66f	0.05023807
255	0x3d1ace4d	0.0377944

conv1_rgb.bias f4 [64]
0	0xbd8f011c	-0.069826335
1	0xbd53b3e9	-0.051685248
2	0xbe0bde85	-0.13659103
3	0x3c9ee6e2	0.019397203
4	0xbd9cb142	-0.07650997
5	0x3deced44	0.11568692
6	0xbd13cccd	-0.036083985
7	0x3d8a1a44	0.06743291
8	0xbd943f3e	-0.07238625
9	0xbe0b20c3	-0.13586716
10	0xbdb376f9	-0.087629266
11	0xbe369545	-0.1783038
12	0xbd343596	-0.043996416
13	0xbd9efed5	-0.07763449
14	0xbdc6d401	-0.09708405
15	0xbdb3d019	-0.08779926
16	0xbe0800ab	-0.13281505
17	0xbbf95b0a	-0.0076097297
18	0xbc4fee54	-0.012691099
19	0xbe130ce5	-0.14360388
20	0x3db254b0	0.08707559
21	0x3c4fbbe8	0.012679078
22	0xbe17baaa	-0.148173
23	0xbcb84b3d	-0.022496814
24	0xbd8432c0	-0.06454992
25	0x3e206bff	0.15666197
26	0xbe1e1bdd	-0.15440316
27	0x3d931579	0.0718183
28	0x3d00d670	0.031454504
29	0x3c8b047f	0.016969917
30	0xbd186227	-0.03720298
31	0xbdc5ff3f	-0.09667825
32	0xbdd2a12b	-0.102846466
33	0xbcf1d5e0	-0.029520929
34	0xbcca25e2	-0.024676267
35	0xbd394df6	-0.045240365
36	0xbda723b0	-0.08161104
37	0xbd334549	-0.043767247
38	0x3b8e9d85	0.004352274
39	0x3da805f5	0.08204261
40	0x3e078226	0.13233241
41	0x3bce9a8e	0.0063050454
42	0x3cac7d44	0.021055825
43	0xbd1901b1	-0.03735513
44	0xbd9a969e	-0.07548259
45	0xbda1c9ca	-0.07899816
46	0xbdd643e1	-0.104621656
47	0xbc42b74d	-0.011884523
48	0x3cae8255	0.021302382
49	0xbb6aa5a2	-0.0035804291
50	0x3d147c58	0.036251396
51	0xbde56649	-0.1120115
52	0xbdb45db6	-0.088069364
53	0xbd6da26e	-0.058016233
54	0xbc840660	-0.016116321
55	0xbd15f367	-0.03660908
56	0x3cfa8d66	0.030585002
57	0xbd45c29a	-0.04828129
58	0xbdae5473	-0.08512201
59	0xbd5e2855	-0.054237682
60	0xbe2ed043	-0.17071633
61	0x3dd334c2	0.10312797
62	0x3dce72d4	0.100804955
63	0xbde325d3	-0.11091199

conv1_depth.weight f4 [16, 1, 7, 7]
0	0x3de5a49f	0.112130396
1	0x3d85b92a	0.06529458
2	0x3c13abcc	0.009013128
3	0x3cf6ab92	0.030111108
4	0xbd9e84c9	-0.077401705
5	0xbda85dad	-0.08220992
6	0xbd44cf2e	-0.048049144
7	0x3e1c5b36	0.15269169
8	0x3e068008	0.13134778
9	0x3da9b621	0.082866915
10	0x3d1684c6	0.036747716
11	0x3cda86f3	0.026675677
12	0xbbc56672	-0.0060241753
13	0xbd5391ba	-0.051652648
14	0x3e066591	0.13124682
15	0x3e31ff52	0.17382553
16	0x3e12f735	0.14352114
17	0x3d5ef30f	0.054431017
18	0x3c3fe017	0.011711142
19	0xbd50d83c	-0.050987467
20	0xbdc277b5	-0.094954886
21	0x3de79db3	0.113093756
22	0x3e26d3e3	0.16291766
23	0x3ddf5df1	0.1090659
24	0x3d28a0d5	0.041169006
25	0x3c369945	0.011144941
26	0xbdbead71	-0.09310425
27	0xbdada96e	-0.08479582
28	0x3d25cfab	0.04048125
29	0x3c35107d	0.011051294
30	0x3ce18d66	0.027533244
31	0x3c124abc	0.008928951
32	0xbd14c1fe	-0.036317818
33	0xbd8cd117	-0.06875818
34	0xbdcdaa4b	-0.100422464
35	0x3c5ea81a	0.013589883
36	0xbbe059f4	-0.0068466607
37	0x3c861797	0.01636867
38	0xbd82ca5a	-0.06386252
39	0xbd39b136	-0.045335017
40	0xbdfe771d	-0.12425063
41	0xbde49d26	-0.11162786
42	0x3c9cfcc5	0.019163499
43	0xbd636507	-0.05551627
44	0xbd546bbb	-0.051860552
45	0xbdba3772	-0.090926066
46	0xbddf67f7	-0.109085016
47	0xbe194e9b	-0.14971392
48	0xbe25a07e	-0.16174504
49	0x3d3ab214	0.045579985
50	0xbd8356ba	-0.06413026
51	0xbcd0fcce	-0.025511172
52	0xbd953be4	-0.07286814
53	0xbdd8af46	-0.10580306
54	0xbd0a7413	-0.033802103
55	0xbce2d7e5	-0.027690837
56	0xbcd0dbe4	-0.025495477
57	0xbd3b0027	-0.045654442
58	0xbde9a3ef	-0.11408221
59	0x3c29808c	0.010345589
60	0xbd129e51	-0.035795514
61	0xbd1f7c94	-0.038937166
62	0xbc962495	-0.01832799
63	0x3d49cd9a	0.049268343
64	0x3cea6dab	0.028616747
65	0xbce17def	-0.02752587
66	0xbcd7f600	-0.02636242
67	0xbd7f5970	-0.062341154
68	0xbdf49612	-0.11942686
69	0xbd97e346	-0.07416396
70	0x3d2f087b	0.042732697
71	0x3c45003d	0.012023983
72	0xbd28a3b6	-0.041171752
73	0xbd111d91	-0.035428587
74	0xbd014511	-0.031560007
75	0xbdc84613	-0.097789906
76	0xbc6106e7	-0.013734556
77	0x3d3fc2a5	0.046816487
78	0x3d1b322b	0.03788964
79	0xbc92308d	-0.017845416
80	0xbc740325	-0.014893328
81	0xbd7adb13	-0.06124408
82	0xbd2e2ba2	-0.04252208
83	0x3d2ca4bd	0.042149294
84	0xbb5fccf2	-0.0034149257
85	0x3c8e697d	0.017384285
86	0xbc12e08d	-0.00896467
87	0x3d0e4bc7	0.034740236
88	0xbcd05d89	-0.025435226
89	0xbd305dec	-0.04305832
90	0x3cbea58b	0.023272296
91	0xb95cfe4d	-0.0002107557
92	0x3d35d051	0.04438812
93	0xbc5761b4	-0.013145853
94	0x3d7dd59c	0.061971292
95	0xbba759f5	-0.0051071593
96	0xbbd1435d	-0.006386204
97	0x3cb106d9	0.02160971
98	0xbda41012	-0.08010878
99	0xbd772740	-0.060340166
100	0xbc0cba62	-0.008589359
101	0xbd03c570	-0.032170713
102	0xbbe6fa71	-0.007048898
103	0xbcb2ec1c	-0.021841101
104	0xbd3642f6	-0.044497453
105	0xbcf76ce2	-0.030203287
106	0xbdbe6744	-0.0929704
107	0xbd8b9565	-0.06815604
108	0xbd41b8fb	-0.04729555
109	0xbd5536d5	-0.052054245
110	0xbd8c34c7	-0.06846004
111	0xbd055431	-0.032550994
112	0x3c6ed640	0.014577448
113	0xbc911910	-0.017712146
114	0xbcff4c84	-0.031164415
115	0xbc7c1006	-0.01538468
116	0xbd96a5b0	-0.07355821
117	0xbd5a937e	-0.053363316
118	0xbd32f5db	-0.043691497
119	0x3c6cba95	0.0144487815
120	0x3d317215	0.043321688
121	0x3c96baed	0.01839968
122	0x3d203936	0.03911706
123	0xbd902e2d	-0.07040057
124	0xbdb7c57a	-0.089732125
125	0xbd2254f7	-0.03963181
126	0x3ca1f5e1	0.019770565
127	0x3dac4c59	0.08413
128	0xbcf553fb	-0.029947272
129	0xba9f53ed	-0.0012155749
130	0xbd7635bc	-0.06010984
131	0x3cb87756	0.022517841
132	0xbd1e0033	-0.03857441
133	0xbca7aba9	-0.020467596
134	0x3ccf2e51	0.02529064
135	0x3c524cc1	0.012835682
136	0xbd3364a1	-0.04379714
137	0xbd39ebd3	-0.045390915
138	0xbd840b1f	-0.06447434
139	0x3ce0bf77	0.027435048
140	0x3d3dd3b4	0.046344474
141	0x3d2c4fd4	0.042068318
142	0xbac0b68c	-0.0014702841
143	0x3d454b8a	0.048167743
144	0x3d7fb40f	0.062427577
145	0xbcb5d7dd	-0.022197658
146	0xbc521adf	-0.012823789
147	0x3cf22dd4	0.029562868
148	0xbd01773f	-0.031607863
149	0xbc661df0	-0.014045224
150	0xbd5334bb	-0.05156396
151	0xbdbfb448	-0.09360558
152	0xbe039b98	-0.12852323
153	0xbe0f61de	-0.14002177
154	0x3d649a35	0.055811126
155	0x3d306275	0.043062646
156	0x3dc20e7a	0.094754174
157	0x3b430637	0.0029758343
158	0x3cf447f3	0.029819464
159	0xbdcf9363	-0.10135534
160	0xbdd6cf0c	-0.1048871
161	0x3da87a0d	0.08226404
162	0x3c6b43d5	0.014359434
163	0xbba75f2a	-0.00510778
164	0xbd21a2fb	-0.03946207
165	0xbcb2627f	-0.021775482
166	0xbc982db4	-0.01857648
167	0x3c0d108e	0.008609904
168	0x3e081bca	0.1329185
169	0x3e2244be	0.15846536
170	0x3d964858	0.07338017
171	0x3d436ca6	0.047711037
172	0xbc38214e	-0.011238409
173	0xbc750a14	-0.014956016
174	0x3c86f661	0.016474904
175	0x3dc48a3d	0.09596679
176	0x3da6248b	0.08112439
177	0x3daf8f64	0.085722715
178	0x3ded00f7	0.1157245
179	0x3de6f8e6	0.11277942
180	0x3e090bd3	0.13383417
181	0x3e1c5b77	0.15269266
182	0x3bc62d3a	0.006047872
183	0x3d984070	0.074341655
184	0x3df45304	0.119298965
185	0x3dfa46fa	0.12220569
186	0x3d8254c0	0.06363821
187	0x3dbf89ac	0.09352431
188	0x3dd1f204	0.10251239
189	0x3e01f999	0.1269287
190	0x3e2df040	0.1698618
191	0x3e134cc3	0.14384751
192	0x3e3a1c24	0.18174797
193	0x3e02cf09	0.1277429
194	0x3de88591	0.11353601
195	0x3da94496	0.08265035
196	0xbaf883c5	-0.0018960169
197	0xbd46dd63	-0.048550975
198	0xbd6b7132	-0.057481
199	0xbda362a0	-0.079777956
200	0xbd91bac7	-0.07115703
201	0xbcd12c93	-0.02553395
202	0xbd52df12	-0.051482268
203	0xbd043b3b	-0.03228305
204	0x3c573203	0.013134482
205	0xbd8e323c	-0.06943175
206	0xbd8ebc70	-0.06969535
207	0xbc4889b1	-0.012239859
208	0xbd54f11b	-0.05198775
209	0xbdf2e110	-0.118593335
210	0x3d3482b3	0.044069957
211	0x3d405a2e	0.046961002
212	0xbd52c619	-0.051458452
213	0xbd43adab	-0.047773045
214	0xbd0dfef6	-0.034666978
215	0xbd4ea26a	-0.05044786
216	0x3cada49c	0.021196656
217	0x3ca9a8be	0.020710345
218	0x3d9bf0d2	0.07614292
219	0xbc1a63a2	-0.009423168
220	0xbce2b3e9	-0.027673678
221	0x3c68be53	0.014205533
222	0xbceed95e	-0.029156383
223	0x3a8e82e8	0.0010872753
224	0x3b534c9a	0.0032241703
225	0x3c4691df	0.012119739
226	0x3ab6652a	0.0013915647
227	0xbc480864	-0.012209032
228	0x3d447b2b	0.047969025
229	0xbc17ba3d	-0.009260711
230	0xbcbbc8c1	-0.022922875
231	0xbbce91b0	-0.0063039884
232	0x3d5eb2cd	0.054369736
233	0x3c673fb5	0.01411431
234	0x3caf9c80	0.02143693
235	0xbc22bc8a	-0.0099326465
236	0x3ac03513	0.0014664255
237	0xbb112d74	-0.0022152336
238	0xbae6e522	-0.0017615894
239	0x3d8f9b52	0.07012047
240	0x3de7730b	0.113012396
241	0x3dd21796	0.10258405
242	0x3dfad66f	0.12247931
243	0x3db16e26	0.08663587
244	0x38c45daf	9.363458e-05
245	0xbdbe53f1	-0.09293354
246	0x3d09ee7e	0.03367471
247	0xbd4ad9f9	-0.04952428
248	0xbd3a9573	-0.045552682
249	0xbd8c5f99	-0.06854171
250	0x3bc73da7	0.0060803476
251	0xbb52cf0b	-0.0032166864
252	0xbdf6a72c	-0.12043604
253	0xbdc2e4cd	-0.095162965
254	0xbcabfabd	-0.020993585
255	0xbceea8b9	-0.029133188

conv1_depth.bias f4 [16]
0	0x3e4490cd	0.19195862
1	0xbd5486d1	-0.051886383
2	0xbe270a8e	-0.1631262
3	0x3c1f3a89	0.009718546
4	0xbdb1d627	-0.086834244
5	0xbde83e25	-0.11339978
6	0x3e1bd528	0.15218031
7	0xbdde8549	-0.10865266
8	0x3d892cf1	0.06698025
9	0x3b3ae3f4	0.0028517218
10	0x3c1dc25a	0.009628857
11	0xbe39644d	-0.18104668
12	0xbe19f88f	-0.15036224
13	0x3e75fc0e	0.24021932
14	0xbcae5f19	-0.02128558
15	0xbd4df9c6	-0.05028703

conv2.weight f4 [32, 80, 1, 1]
0	0xbd843930	-0.0645622
1	0x3d5f295f	0.054482814
2	0x3d9d9765	0.07694892
3	0x3c6a9a2a	0.014318982
4	0x3d1e7a07	0.038690593
5	0xbe016817	-0.12637363
6	0x3e470262	0.19434503
7	0x3d89f864	0.0673683
8	0x3d07f3b9	0.033191416
9	0xbe290b75	-0.16508277
10	0x3da24176	0.07922642
11	0x3d0f7b6b	0.03502981
12	0xbe118424	-0.14210564
13	0xbc5f2232	-0.013618993
14	0x3da9446e	0.08265005
15	0xbc5ef54b	-0.013608287
16	0x3d8483ae	0.064704284
17	0xbcabe357	-0.020982428
18	0xbe34e900	-0.17667007
19	0xbe182b36	-0.14860234
20	0x3e622d4d	0.22087593
21	0x3d718021	0.058960084
22	0xbda5b4fa	-0.08091159
23	0x3ded93d7	0.11600464
24	0xbca8d8a0	-0.020611107
25	0xbe035ea3	-0.1282907
26	0x3e42a353	0.19007616
27	0xbba43146	-0.0050107567
28	0x3dfbea7d	0.123005845
29	0xbcf7aff2	-0.030235264
30	0x3e141401	0.14460756
31	0x3dc001d2	0.09375347
32	0xbccdc0b1	-0.025116296
33	0x3d3d1458	0.04616198
34	0xbd7a072f	-0.061042007
35	0x3dbb1eaf	0.09136712
36	0x3d7d657f	0.061864372
37	0x3d8fa975	0.07014743
38	0xb9bf11ad	-0.00036443528
39	0xbde86557	-0.11347454
40	0xbd32b7d3	-0.04363234
41	0xbc057b45	-0.0081470655
42	0xbded9c9c	-0.116021365
43	0xbd4a6c39	-0.049419615
44	0xbe4098d5	-0.18808301
45	0xbd436a75	-0.047708947
46	0xbd9a1d01	-0.07525063
47	0x3db9eb13	0.0907804
48	0xbd8260ca	-0.06366117
49	0xbb11d22b	-0.0022250514
50	0x3e586402	0.211319
51	0x3ce3b667	0.027796937
52	0x3dd2bd5e	0.10290025
53	0xbd2a7564	-0.04161586
54	0xbdec1356	-0.115271255
55	0x3ce361a7	0.027756525
56	0xbda58c69	-0.08083422
57	0xbdf2d5d5	-0.118571915
58	0x39e72ddc	0.0004409392
59	0xbe108ba0	-0.14115763
60	0x3e06b11d	0.13153501
61	0x3884f5e4	6.340051e-05
62	0xbc32963e	-0.010900078
63	0x3e0f137e	0.1397228
64	0x3ce31f40	0.027724862
65	0x3ce2d3e2	0.027688924
66	0x3d8f1d91	0.06988061
67	0x3b244252	0.0025063944
68	0xbd6d69dc	-0.057962283
69	0x3c3e0591	0.011598007
70	0x3db04913	0.08607688
71	0xba2c0f4b	-0.0006563558
72	0x3ce06718	0.027392909
73	0x3da0ea2c	0.07857165
74	0xbe0b8d29	-0.13628067
75	0x3d06a9c3	0.03287674
76	0x3d33942b	0.043842476
77	0xbcd0f660	-0.025508106
78	0x3d5d5a8e	0.054041438
79	0xbd3543cc	-0.04425411
80	0x3cdc8265	0.026917646
81	0xbd085673	-0.03328557
82	0x3d551e93	0.05203111
83	0xbce96580	-0.028490782
84	0x3d5172a7	0.05113473
85	0x3c9e8e8d	0.019355083
86	0xbe0919f3	-0.13388805
87	0xbda75605	-0.08170704
88	0xbdaf935f	-0.08573031
89	0x3e46d306	0.19416437
90	0xbd013f0c	-0.031554267
91	0xbcb544c1	-0.022127511
92	0xbda617c4	-0.08110002
93	0xbd96cc96	-0.073632404
94	0x3dcf4c75	0.10122005
95	0x3d8b7bca	0.0681072
96	0x3b220908	0.0024724621
97	0x3d9ef41b	0.07761403
98	0xbc03b2ed	-0.008038265
99	0xbd3a4f33	-0.045485687
100	0x3d4288f0	0.047493875
101	0x3d258b8f	0.040416297
102	0x3c8d15b3	0.017222261
103	0xbde260c6	-0.11053614
104	0xbd0fae92	-0.035078593
105	0xbcb56e69	-0.022147374
106	0x3d354293	0.044252943
107	0x3d5ed2cc	0.05440025
108	0xbcfe87c9	-0.031070607
109	0xbd706fc1	-0.058700327
110	0xbe020a95	-0.12699349
111	0x3d59bb91	0.053157393
112	0x3a328ea8	0.00068114186
113	0x3d9bfb01	0.076162346
114	0x3d93ceb1	0.07217158
115	0x3c480021	0.012207062
116	0x3de1f29f	0.110326044
117	0x3bc6fe5f	0.006072804
118	0xbd569d61	-0.052396182
119	0xbd28d21d	-0.041216005
120	0xbbe976ec	-0.0071247723
121	0x3d89aa2a	0.06721909
122	0xbdaeb2a1	-0.085301645
123	0xbd35fe79	-0.044432137
124	0xbcdf3065	-0.027244756
125	0xbd158f2d	-0.036513496
126	0x3e16d4de	0.1472964
127	0xbc6f72bb	-0.014614756
128	0xbd14073f	-0.036139723
129	0xbde12cbc	-0.109948605
130	0x3d9000cb	0.07031401
131	0x3d7d7aee	0.061884813
132	0xbdc05e71	-0.09393013
133	0xbd4b0aed	-0.049570967
134	0x3d36bf9a	0.04461632
135	0xbcb7e039	-0.022445785
136	0x3df65570	0.12028015
137	0x3d176b2f	0.036967453
138	0xbe54ae69	-0.20769657
139	0x3de4fd36	0.11181109
140	0x3d583f3c	0.05279468
141	0xbca350fd	-0.01993608
142	0xbd546e74	-0.05186315
143	0xbd95e5f6	-0.07319252
144	0x3c62a1c0	0.0138325095
145	0x3dd8b8d7	0.105821304
146	0x3da8b938	0.08238453
147	0x3d3659b0	0.044519126
148	0x3d44e3ea	0.04806892
149	0x3da92756	0.08259456
150	0x3da31a4d	0.07964001
151	0xbc539320	-0.012913495
152	0xbdd0b363	-0.10190465
153	0xbd37a055	-0.04483064
154	0x3c73de95	0.014884611
155	0x3dd9c2cf	0.1063286
156	0x3df7a569	0.12092096
157	0x3d514fd6	0.051101528
158	0x3d71646d	0.058933664
159	0xbd57091a	-0.052498914
160	0x3d0bef2c	0.03416364
161	0xbd278bbc	-0.040904745
162	0xbd370c23	-0.04468931
163	0xbb9ba835	-0.0047502765
164	0xbd030ad2	-0.03199274
165	0xbdb24a4c	-0.08705577
166	0x3d901afd	0.070363976
167	0xbc3eb789	-0.011640438
168	0x3d800ecd	0.06252823
169	0xbd3e0fae	-0.046401672
170	0xbdfe4302	-0.124151245
171	0xbdfe7429	-0.124244995
172	0xbd97af29	-0.07406456
173	0x3b9800df	0.0046387757
174	0x3d90b2d0	0.07065356
175	0xbbd1dee5	-0.006404745
176	0x3d664a40	0.056223154
177	0x3c7a0711	0.015260474
178	0x3ccb81d0	0.024842173
179	0x3e0672c3	0.13129716
180	0xbdf99102	-0.12185861
181	0x3decbf60	0.115599394
182	0x3daf32d5	0.08554617
183	0xbd574cb0	-0.05256337
184	0x3c800197	0.015625758
185	0xbc9e9054	-0.01935593
186	0xbe2f2e49	-0.171075
187	0xbca01914	-0.019543208
188	0xbcf3fe04	-0.02978421
189	0xbd9c824d	-0.076420404
190	0xbe6cdc6e	-0.23130962
191	0xbe02e994	-0.12784415
192	0xbcd6d0dc	-0.026222639
193	0x3c4a1593	0.012334245
194	0x3d898a2d	0.06715808
195	0xbdd39f26	-0.103330895
196	0x3cab4e48	0.02091135
197	0xbda92318	-0.08258647
198	0x3de1b76c	0.11021313
199	0xbc8f8ba9	-0.01752265
200	0x3d798dc2	0.060926206
201	0x3d8a7c62	0.067620054
202	0xb8bcd825	-9.0047986e-05
203	0xb9a71bde	-0.00031873485
204	0x3c45a8ef	0.012064203
205	0x3be553c1	0.0069985096
206	0x3e05379e	0.13009498
207	0x3bb32fde	0.0054683527
208	0x3dc1257c	0.09430978
209	0x3dd32f2b	0.10311731
210	0xbc097fcb	-0.008392285
211	0xbd14a629	-0.036291275
212	0xbe0619f4	-0.13095838
213	0x3dde0490	0.10840714
214	0x3b0a2de4	0.0021084482
215	0x3bb3439e	0.005470707
216	0x3e394780	0.18093681
217	0x3c7c1fd5	0.015388449
218	0xbd68ff97	-0.056884374
219	0x3db37cdd	0.0876405
220	0x3e33e0a9	0.1756617
221	0x3de9b101	0.11410714
222	0xbd4be1f3	-0.04977603
223	0xbc9ed71d	-0.019389683
224	0xbc7a0ad9	-0.015261375
225	0x3dcfac1e	0.101402506
226	0x3e0ffea0	0.14061975
227	0xbca3121c	-0.019906096
228	0xbcf54550	-0.029940277
229	0x3e0d133c	0.13776869
230	0xbe200153	-0.15625505
231	0xbc939c6e	-0.018018927
232	0x3dd27540	0.1027627
233	0xbde53f8b	-0.111937605
234	0xbde62bf6	-0.11238854
235	0x3dde02a0	0.108403444
236	0x3e34fd12	0.17674664
237	0xbddd37cf	-0.1080166
238	0x3daf73de	0.08567022
239	0xbbe701ab	-0.0070497594
240	0x3c962356	0.018327396
241	0xbcf52260	-0.029923618
242	0xbd834c42	-0.064110294
243	0xbd14f4ac	-0.03636615
244	0x3b95a945	0.0045672976
245	0x3e0a7ada	0.13523427
246	0x3e0a0512	0.13478497
247	0x3d8ead94	0.06966701
248	0x3c50e79b	0.012750532
249	0xbdc8d53a	-0.09806295
250	0xbd86bec7	-0.06579357
251	0xbd43055c	-0.047612533
252	0xbcde00c1	-0.027099969
253	0x3d6fd9a0	0.058557153
254	0xbb83edc5	-0.004026147
255	0x3ada54cd	0.0016657353

conv2.bias f4 [32]
0	0xbdce5052	-0.10073914
1	0xbde4a0a4	-0.11163452
2	0x3d0b309a	0.033981897
3	0x3e88202c	0.26587045
4	0xbcc9e1b0	-0.024643749
5	0x3ddee12b	0.10882791
6	0xbdce2694	-0.10065952
7	0xbd25b1a8	-0.04045263
8	0x3e1d2931	0.15347745
9	0x3dc3e8ba	0.095658734
10	0xbd4a62a8	-0.049410492
11	0x3ab251c9	0.0013604696
12	0xbdcfdf89	-0.10150058
13	0x3d248d82	0.040174015
14	0x3e133482	0.14375499
15	0x3da6ba4f	0.08141004
16	0x3da3c647	0.07996803
17	0x3d4d7bef	0.05016702
18	0xbd0900bf	-0.033447977
19	0xbddb68b6	-0.107133314
20	0x3d08637b	0.033297997
21	0xbdd76dd4	-0.10518995
22	0x3d7e7067	0.062118914
23	0x3d324e81	0.0435319
24	0xbdc78fcd	-0.09744225
25	0x3e1cc0f7	0.15307985
26	0xbd2975db	-0.04137216
27	0xbda4f4cf	-0.08054506
28	0x3ce978e7	0.028500034
29	0x3ddd1f1e	0.10796951
30	0x3daf15da	0.0854909
31	0xbd911b0e	-0.070852384

conv2_bn.weight f4 [32]
0	0x3f800000	1.0
1	0x3f800000	1.0
2	0x3f800000	1.0
3	0x3f800000	1.0
4	0x3f800000	1.0
5	0x3f800000	1.0
6	0x3f800000	1.0
7	0x3f800000	1.0
8	0x3f800000	1.0
9	0x3f800000	1.0
10	0x3f800000	1.0
11	0x3f800000	1.0
12	0x3f800000	1.0
13	0x3f800000	1.0
14	0x3f800000	1.0
15	0x3f800000	1.0
16	0x3f800000	1.0
17	0x3f800000	1.0
18	0x3f800000	1.0
19	0x3f800000	1.0
20	0x3f800000	1.0
21	0x3f800000	1.0
22	0x3f800000	1.0
23	0x3f800000	1.0
24	0x3f800000	1.0
25	0x3f800000	1.0
26	0x3f800000	1.0
27	0x3f800000	1.0
28	0x3f800000	1.0
29	0x3f800000	1.0
30	0x3f800000	1.0
31	0x3f800000	1.0

conv2_bn.bias f4 [32]
0	0x00000000	0.0
1	0x00000000	0.0
2	0x00000000	0.0
3	0x00000000	0.0
4	0x00000000	0.0
5	0x00000000	0.0
6	0x00000000	0.0
7	0x00000000	0.0
8	0x00000000	0.0
9	0x00000000	0.0
10	0x00000000	0.0
11	0x00000000	0.0
12	0x00000000	0.0
13	0x00000000	0.0
14	0x00000000	0.0
15	0x00000000	0.0
16	0x00000000	0.0
17	0x00000000	0.0
18	0x00000000	0.0
19	0x00000000	0.0
20	0x00000000	0.0
21	0x00000000	0.0
22	0x00000000	0.0
23	0x00000000	0.0
24	0x00000000	0.0
25	0x00000000	0.0
26	0x00000000	0.0
27	0x00000000	0.0
28	0x00000000	0.0
29	0x00000000	0.0
30	0x00000000	0.0
31	0x00000000	0.0

conv2_bn.running_mean f4 [32]
0	0x00000000	0.0
1	0x00000000	0.0
2	0x00000000	0.0
3	0x00000000	0.0
4	0x00000000	0.0
5	0x00000000	0.0
6	0x00000000	0.0
7	0x00000000	0.0
8	0x00000000	0.0
9	0x00000000	0.0
10	0x00000000	0.0
11	0x00000000	0.0
12	0x00000000	0.0
13	0x00000000	0.0
14	0x00000000	0.0
15	0x00000000	0.0
16	0x00000000	0.0
17	0x00000000	0.0
18	0x00000000	0.0
19	0x00000000	0.0
20	0x00000000	0.0
21	0x00000000	0.0
22	0x00000000	0.0
23	0x00000000	0.0
24	0x00000000	0.0
25	0x00000000	0.0
26	0x00000000	0.0
27	0x00000000	0.0
28	0x00000000	0.0
29	0x00000000	0.0
30	0x00000000	0.0
31	0x00000000	0.0

conv2_bn.running_var f4 [32]
0	0x3f800000	1.0
1	0x3f800000	1.0
2	0x3f800000	1.0
3	0x3f800000	1.0
4	0x3f800000	1.0
5	0x3f800000	1.0
6	0x3f800000	1.0
7	0x3f800000	1.0
8	0x3f800000	1.0
9	0x3f800000	1.0
10	0x3f800000	1.0
11	0x3f800000	1.0
12	0x3f800000	1.0
13	0x3f800000	1.0
14	0x3f800000	1.0
15	0x3f800000	1.0
16	0x3f800000	1.0
17	0x3f800000	1.0
18	0x3f800000	1.0
19	0x3f800000	1.0
20	0x3f800000	1.0
21	0x3f800000	1.0
22	0x3f800000	1.0
23	0x3f800000	1.0
24	0x3f800000	1.0
25	0x3f800000	1.0
26	0x3f800000	1.0
27	0x3f800000	1.0
28	0x3f800000	1.0
29	0x3f800000	1.0
30	0x3f800000	1.0
31	0x3f800000	1.0

conv3.weight f4 [32, 32, 3, 3]
0	0xb80be5ea	-3.3354307e-05
1	0xb74a9809	-1.2075537e-05
2	0xb55aee0d	-8.155774e-07
3	0xb41ce5a9	-1.4612182e-07
4	0x34e01e64	4.1745363e-07
5	0x37414976	1.15208e-05
6	0x35e18e97	1.6805305e-06
7	0x373d4690	1.1281707e-05
8	0x38fd3db1	0.00012075471
9	0xb79c507d	-1.863413e-05
10	0xb815a306	-3.5676196e-05
11	0xb7d10275	-2.4915886e-05
12	0xb8478d7a	-4.7577058e-05
13	0xb8e79c41	-0.00011044043
14	0xb896bed0	-7.188099e-05
15	0xb817ce6a	-3.6193444e-05
16	0xb8a90f93	-8.061449e-05
17	0xb881c55f	-6.1879626e-05
18	0xb9dbb2c2	-0.0004190412
19	0xba0937f5	-0.00052344735
20	0xba1d69ee	-0.00060048595
21	0xb9964766	-0.00028663425
22	0xb9e6d642	-0.00044028653
23	0xba47010f	-0.00075914053
24	0xb9dabbc5	-0.000417201
25	0xba3e8f19	-0.0007269248
26	0xba960b8b	-0.0011447532
27	0xb628c28a	-2.5147187e-06
28	0xb8335562	-4.2756445e-05
29	0xb87d166e	-6.034079e-05
30	0xb83dd92c	-4.526337e-05
31	0xb9898676	-0.00026230857
32	0xb9ec0cdd	-0.00045023012
33	0xb68d20fa	-4.2059664e-06
34	0xb8f73826	-0.00011788336
35	0xb99e590c	-0.00030202453
36	0xb91a6e78	-0.00014727737
37	0xb9338125	-0.0001711888
38	0xb7b4d69f	-2.1557613e-05
39	0xb7f8fc78	-2.9681469e-05
40	0xb7df3649	-2.660895e-05
41	0xb580c23a	-9.59327e-07
42	0xb448c333	-1.8697465e-07
43	0xb50a105f	-5.143283e-07
44	0xb38f1f3c	-6.664638e-08
45	0xb7b2a290	-2.1294953e-05
46	0xb676fc8f	-3.6803865e-06
47	0xb541a5b0	-7.213921e-07
48	0xb8119a35	-3.471431e-05
49	0xb7c9bfcc	-2.405038e-05
50	0xb7859a90	-1.592681e-05
51	0xb92ead03	-0.00016658385
52	0xb8fd25f1	-0.00012071047
53	0xb892c4a1	-6.9984475e-05
54	0xba92fd64	-0.0011214432
55	0xba3ea666	-0.000727272
56	0xb98ee120	-0.00027252082
57	0xbb07fcde	-0.0020750086
58	0xbad3f095	-0.0016169721
59	0xba5106ec	-0.0007973749
60	0xbac8ba47	-0.0015314304
61	0xba9f660c	-0.001216115
62	0xba332679	-0.0006834041
63	0xb71800d7	-9.060102e-06
64	0xb6b0da6e	-5.2706373e-06
65	0xb5fdced0	-1.8910159e-06
66	0xb3c8ca06	-9.3499736e-08
67	0xb578920c	-9.2599726e-07
68	0xb5de07d8	-1.6542572e-06
69	0xb39fc1bc	-7.4392545e-08
70	0xb616818c	-2.2427148e-06
71	0xb7080fb9	-8.109892e-06
72	0xbabec9cf	-0.0014555993
73	0xbab4cf0f	-0.0013794618
74	0xba8e8e7f	-0.0010876207
75	0xbb245fea	-0.0025081583
76	0xbb28be4e	-0.0025748196
77	0xbb04c03f	-0.002025619
78	0xbb442826	-0.0029931157
79	0xbb55ba16	-0.0032612137
80	0xbb2e41ec	-0.0026589585
81	0xb83d4621	-4.5126424e-05
82	0xb800173c	-3.0539217e-05
83	0xb7cdcb13	-2.4532468e-05
84	0xb7c89ba8	-2.3914341e-05
85	0xb77e096c	-1.51417735e-05
86	0xb706b169	-8.028329e-06
87	0xb4b3974e	-3.3451437e-07
88	0xb4350b9b	-1.686116e-07
89	0xb44a97b0	-1.88679e-07
90	0xb7401f6c	-1.1451408e-05
91	0xb8f0a673	-0.000114750954
92	0xb9abe22d	-0.00032784176
93	0xb8281e09	-4.0082294e-05
94	0xb934ba79	-0.00017235604
95	0xba3fe7e3	-0.00073206256
96	0xb75f9bb9	-1.3328093e-05
97	0xb8764ba1	-5.8721405e-05
98	0xb9d4a018	-0.0004055507
99	0xb8092c8f	-3.2704844e-05
100	0xb97a5404	-0.00023873156
101	0xb9df0a31	-0.00042541468
102	0xb8d23dc1	-0.00010025083
103	0xb9b882e7	-0.00035192745
104	0xba4f96b2	-0.00079188787
105	0xb7dff5f0	-2.6698195e-05
106	0xb6f1b7bb	-7.2037487e-06
107	0xb79f6b6c	-1.90043e-05
108	0xb967869f	-0.00022080027
109	0xb9297c67	-0.0001616344
110	0xb85771af	-5.136587e-05
111	0xb89bb25c	-7.424198e-05
112	0xb85e860b	-5.305376e-05
113	0xb757a871	-1.2854217e-05
114	0xb6f8897e	-7.406982e-06
115	0xb61a061a	-2.295134e-06
116	0xb4948f39	-2.7671356e-07
117	0xb7c5b3c0	-2.3567933e-05
118	0xb9416ab8	-0.0001844567
119	0xb99aa2a5	-0.0002949435
120	0xb898178c	-7.252311e-05
121	0xb9b92e17	-0.0003532029
122	0xba3617fc	-0.0006946323
123	0xb7c56e2c	-2.3535533e-05
124	0xb9469f0c	-0.00018942001
125	0xb9e868b1	-0.0004432849
126	0xb9102824	-0.00013747864
127	0xb8b4dc58	-8.624111e-05
128	0xb88d260f	-6.730493e-05
129	0xba36922b	-0.000696453
130	0xba7005d4	-0.0009156142
131	0xb9fe00b5	-0.00048447182
132	0xb9ad408b	-0.0003304522
133	0xba860118	-0.0010223715
134	0xba26cdb2	-0.00063630485
135	0xb8ed1b29	-0.000113060996
136	0xb99d54c9	-0.00030008543
137	0xb9d93e96	-0.00041436095
138	0xb9165541	-0.00014336874
139	0xb96ada17	-0.00022397224
140	0xb9bb8f0a	-0.00035773992
141	0xb7c771a2	-2.3775563e-05
142	0xb7a0ee36	-1.9184412e-05
143	0xb8acf53c	-8.2472776e-05
144	0x31961005	4.367396e-09
145	0x3418c8f1	1.4229205e-07
146	0x3628f6df	2.5177649e-06
147	0xa7f0f598	-6.6879655e-15
148	0xb42c7e2d	-1.6064651e-07
149	0xb6ead29a	-6.9982607e-06
150	0xb26bcf22	-1.3725897e-08
151	0xb63243c8	-2.656352e-06
152	0xb6b8e9e2	-5.510855e-06
153	0xb6c73dba	-5.937848e-06
154	0xb7d6144e	-2.5520243e-05
155	0xb8a5cd0a	-7.9060046e-05
156	0xb80e43e7	-3.3918677e-05
157	0xb9151e9c	-0.0001422115
158	0xb94fcba0	-0.00019816915
159	0xb74dfaaa	-1.2277314e-05
160	0xb7c9b1e8	-2.4043911e-05
161	0xb7cda1df	-2.4513281e-05
162	0xb9b84cc1	-0.000351524
163	0xb84d7658	-4.8986025e-05
164	0xb50cd9bd	-5.2470915e-07
165	0xba5a374c	-0.000832428
166	0xb986851e	-0.00025657652
167	0xb70dbe9a	-8.448633e-06
168	0xba09b916	-0.0005253715
169	0xb9a1d36d	-0.00030865837
170	0xb866e43d	-5.5048837e-05
171	0xb81917bc	-3.6500147e-05
172	0xb8957842	-7.1272734e-05
173	0xb84aa87a	-4.831746e-05
174	0xb83aff47	-4.45836e-05
175	0xb823c49d	-3.904534e-05
176	0xb8193590	-3.6527927e-05
177	0xb7ba0e4f	-2.217959e-05
178	0xb705b591	-7.969692e-06
179	0xb764809e	-1.3619805e-05
180	0xb734116a	-1.0732891e-05
181	0xb73eccc8	-1.1372562e-05
182	0xb727601e	-9.976355e-06
183	0xb8a9d2dc	-8.0978236e-05
184	0xb802a73d	-3.1150168e-05
185	0xb6941d75	-4.414173e-06
186	0xb8231569	-3.8882168e-05
187	0xb68056d7	-3.8248068e-06
188	0xb5a00b42	-1.1924205e-06
189	0xb90f78a6	-0.00013682488
190	0xb915b6ed	-0.00014277892
191	0xb7c421df	-2.3380793e-05
192	0xb58dcbe5	-1.056466e-06
193	0xb6171a78	-2.251616e-06
194	0x35d870bc	1.6126064e-06
195	0xb0f19961	-1.7578651e-09
196	0x324efea3	1.2048676e-08
197	0x34fe6df7	4.7391197e-07
198	0xb84476f0	-4.684081e-05
199	0xb8e9df32	-0.00011151879
200	0xb8dc5825	-0.00010506836
201	0xb7cac66d	-2.4172676e-05
202	0xb86dfbee	-5.673983e-05
203	0xb862d409	-5.4080072e-05
204	0xb67f964d	-3.8085448e-06
205	0xb79a92be	-1.8426563e-05
206	0xb6ae87ce	-5.201414e-06
207	0xb8a7570d	-7.979395e-05
208	0xb9908b01	-0.00027569386
209	0xb94988bd	-0.00019219793
210	0xb710c750	-8.629475e-06
211	0xb8460f8e	-4.7221365e-05
212	0xb91be9bc	-0.00014869025
213	0x30b85a16	1.3413366e-09
214	0xb493a84a	-2.750333e-07
215	0xb7c2c5e7	-2.3218758e-05
216	0xb94e80ac	-0.00019693625
217	0xb8c8638b	-9.5552845e-05
218	0xb728af51	-1.0054399e-05
219	0xb8d51a6d	-0.00010161554
220	0xb8298cd5	-4.04239e-05
221	0xb70df509	-8.461307e-06
222	0xb820816c	-3.8267506e-05
223	0xb6c3ab0f	-5.8313667e-06
224	0x3585de88	9.974037e-07
225	0xb64ceb7a	-3.0535434e-06
226	0xb613672d	-2.1964763e-06
227	0xb6589797	-3.2274745e-06
228	0xb6cc66c3	-6.091637e-06
229	0xb89b68a6	-7.410468e-05
230	0xb97b2af5	-0.00023953228
231	0xb7cb07c7	-2.4203107e-05
232	0xb9cd3561	-0.00039140417
233	0xba45f172	-0.0007550932
234	0xb79ffb07	-1.907117e-05
235	0xb8dc6db8	-0.00010510854
236	0xb8b0b245	-8.425539e-05
237	0xb1488ccd	-2.9183866e-09
238	0xb6dc8257	-6.5716845e-06
239	0xb7fa4297	-2.983333e-05
240	0xacc3c5a0	-5.564174e-12
241	0xb1258cc4	-2.4090676e-09
242	0xb70a5623	-8.245496e-06
243	0xb6d65497	-6.3875445e-06
244	0xb5db6dd7	-1.6348739e-06
245	0xb63e7f23	-2.838621e-06
246	0xb692f64f	-4.379813e-06
247	0xb57788bd	-9.221365e-07
248	0xb46c42bf	-2.2003495e-07
249	0xb5245359	-6.121605e-07
250	0xb36e0c0d	-5.5424653e-08
251	0xb46166b7	-2.0992125e-07
252	0xb72b8b63	-1.0224848e-05
253	0xb8db5b1e	-0.00010459706
254	0xb9048706	-0.00012638801
255	0xb72d4870	-1.0328469e-05

conv3.bias f4 [32]
0	0xb80afdd2	-3.3138153e-05
1	0xbd97de8a	-0.07415493
2	0x3e3b284d	0.18277092
3	0x3e5b5ee5	0.21422918
4	0x3d0afea1	0.03393424
5	0x3d804377	0.06262868
6	0x3c6d4048	0.014480658
7	0x228d4b84	3.829808e-18
8	0x3df3784f	0.118881814
9	0xbd8eef7e	-0.06979273
10	0x3e0e03fb	0.13868706
11	0x3dd3de26	0.10345106
12	0xbd490c85	-0.049084205
13	0xbd6fcb97	-0.058543768
14	0x3df04891	0.11732591
15	0xbcf661a6	-0.03007586
16	0xbc014605	-0.007890229
17	0xbcec2fe9	-0.02883144
18	0x3cba3164	0.02272863
19	0x3df397db	0.118941985
20	0x3d68e520	0.056859136
21	0xbdc5c9ff	-0.09657668
22	0x3b068c3c	0.0020530364
23	0xbd396c87	-0.045269515
24	0x3e301406	0.17195138
25	0xbc6a8f63	-0.014316413
26	0xbd302b5e	-0.04301011
27	0xbd2b0692	-0.041754313
28	0x3cb2affe	0.021812435
29	0xbb88cb00	-0.00417459
30	0x3d89b988	0.067248404
31	0x3d297d62	0.04137934

conv3_bn.weight f4 [32]
0	0x3f800000	1.0
1	0x3f800000	1.0
2	0x3f800000	1.0
3	0x3f800000	1.0
4	0x3f800000	1.0
5	0x3f800000	1.0
6	0x3f800000	1.0
7	0x3f800000	1.0
8	0x3f800000	1.0
9	0x3f800000	1.0
10	0x3f800000	1.0
11	0x3f800000	1.0
12	0x3f800000	1.0
13	0x3f800000	1.0
14	0x3f800000	1.0
15	0x3f800000	1.0
16	0x3f800000	1.0
17	0x3f800000	1.0
18	0x3f800000	1.0
19	0x3f800000	1.0
20	0x3f800000	1.0
21	0x3f800000	1.0
22	0x3f800000	1.0
23	0x3f800000	1.0
24	0x3f800000	1.0
25	0x3f800000	1.0
26	0x3f800000	1.0
27	0x3f800000	1.0
28	0x3f800000	1.0
29	0x3f800000	1.0
30	0x3f800000	1.0
31	0x3f800000	1.0

conv3_bn.bias f4 [32]
0	0x00000000	0.0
1	0x00000000	0.0
2	0x00000000	0.0
3	0x00000000	0.0
4	0x00000000	0.0
5	0x00000000	0.0
6	0x00000000	0.0
7	0x00000000	0.0
8	0x00000000	0.0
9	0x00000000	0.0
10	0x00000000	0.0
11	0x00000000	0.0
12	0x00000000	0.0
13	0x00000000	0.0
14	0x00000000	0.0
15	0x00000000	0.0
16	0x00000000	0.0
17	0x00000000	0.0
18	0x00000000	0.0
19	0x00000000	0.0
20	0x00000000	0.0
21	0x00000000	0.0
22	0x00000000	0.0
23	0x00000000	0.0
24	0x00000000	0.0
25	0x00000000	0.0
26	0x00000000	0.0
27	0x00000000	0.0
28	0x00000000	0.0
29	0x00000000	0.0
30	0x00000000	0.0
31	0x00000000	0.0

conv3_bn.running_mean f4 [32]
0	0x00000000	0.0
1	0x00000000	0.0
2	0x00000000	0.0
3	0x00000000	0.0
4	0x00000000	0.0
5	0x00000000	0.0
6	0x00000000	0.0
7	0x00000000	0.0
8	0x00000000	0.0
9	0x00000000	0.0
10	0x00000000	0.0
11	0x00000000	0.0
12	0x00000000	0.0
13	0x00000000	0.0
14	0x00000000	0.0
15	0x00000000	0.0
16	0x00000000	0.0
17	0x00000000	0.0
18	0x00000000	0.0
19	0x00000000	0.0
20	0x00000000	0.0
21	0x00000000	0.0
22	0x00000000	0.0
23	0x00000000	0.0
24	0x00000000	0.0
25	0x00000000	0.0
26	0x00000000	0.0
27	0x00000000	0.0
28	0x00000000	0.0
29	0x00000000	0.0
30	0x00000000	0.0
31	0x00000000	0.0

conv3_bn.running_var f4 [32]
0	0x3f800000	1.0
1	0x3f800000	1.0
2	0x3f800000	1.0
3	0x3f800000	1.0
4	0x3f800000	1.0
5	0x3f800000	1.0
6	0x3f800000	1.0
7	0x3f800000	1.0
8	0x3f800000	1.0
9	0x3f800000	1.0
10	0x3f800000	1.0
11	0x3f800000	1.0
12	0x3f800000	1.0
13	0x3f800000	1.0
14	0x3f800000	1.0
15	0x3f800000	1.0
16	0x3f800000	1.0
17	0x3f800000	1.0
18	0x3f800000	1.0
19	0x3f800000	1.0
20	0x3f800000	1.0
21	0x3f800000	1.0
22	0x3f800000	1.0
23	0x3f800000	1.0
24	0x3f800000	1.0
25	0x3f800000	1.0
26	0x3f800000	1.0
27	0x3f800000	1.0
28	0x3f800000	1.0
29	0x3f800000	1.0
30	0x3f800000	1.0
31	0x3f800000	1.0

conv4.weight f4 [32, 32, 3, 3]
0	0xb27ed590	-1.4833304e-08
1	0xae3bfdd8	-4.2744336e-11
2	0xac0c0a8c	-1.9901051e-12
3	0xb0929579	-1.0665381e-09
4	0xaf54dea3	-1.9360384e-10
5	0x32b2057e	2.0724425e-08
6	0x2c8d877c	4.022503e-12
7	0xa8d17384	-2.3253758e-14
8	0x2f00da92	1.1719184e-10
9	0x3da91f28	0.08257896
10	0x3cbcf450	0.023065716
11	0x3d6edefa	0.058318116
12	0x3d397a1b	0.045282464
13	0xbc1a6d88	-0.009425528
14	0xbd4f98d0	-0.050682843
15	0xbca8dbd3	-0.020612633
16	0x3bd80640	0.006592542
17	0xbc3e447d	-0.011613009
18	0xbe22b9b4	-0.15891153
19	0xbdd84b2c	-0.10561213
20	0x3ca35ba7	0.019941164
21	0x3d349add	0.044093
22	0x3d4ca95d	0.049966205
23	0x3d586044	0.05282618
24	0x3c0279e9	0.007963636
25	0x3c8ef610	0.017451316
26	0xbd81a8c2	-0.06331016
27	0xbb851ab2	-0.00406202
28	0xbc31c71b	-0.010850693
29	0x3dc94524	0.09827641
30	0x3d0c97b7	0.034324374
31	0x3c33bcb9	0.010970288
32	0xbc43c4e8	-0.011948802
33	0x3d074122	0.0330211
34	0x3dada7f9	0.08479304
35	0xbe0aab19	-0.13541831
36	0xbe3d44b6	-0.18483242
37	0x3d33a18e	0.043855242
38	0xbe06d76d	-0.13168116
39	0xbdcadb1d	-0.09905074
40	0x3d4deb60	0.0502733
41	0xbd431f28	-0.047637135
42	0x3c36f171	0.011165963
43	0x3e4becff	0.19914626
44	0x3ca11d8c	0.01966741
45	0x3d883bc2	0.06652023
46	0xbd8dce89	-0.06924159
47	0x3e1276c6	0.14303121
48	0xbcf743f5	-0.030183772
49	0x3e2014d0	0.1563294
50	0x3e14ddd2	0.14537743
51	0x3d943d35	0.07238237
52	0xbd210d3e	-0.03931927
53	0xbb99e542	-0.004696519
54	0x3da0b786	0.07847504
55	0xbd7a11ca	-0.06105212
56	0xbd675d28	-0.056485325
57	0x3d25cd93	0.040479254
58	0xbca659c7	-0.020306481
59	0xbe23780b	-0.15963762
60	0x3cac8cf5	0.021063307
61	0x3dcc30fa	0.09970279
62	0xbe07a27c	-0.13245577
63	0x90a62058	-6.552529e-29
64	0x0f0dea24	6.9969306e-30
65	0x8f48d123	-9.9010396e-30
66	0x11bf0c50	3.0142075e-28
67	0x90d88276	-8.5397985e-29
68	0x93369bd1	-2.3048453e-27
69	0x9176605b	-1.943567e-28
70	0x0e031324	1.6156213e-30
71	0x8ecaf0e3	-5.002881e-30
72	0x3d81e40c	0.063423246
73	0xbd034a71	-0.032053415
74	0x3cd3196a	0.025768954
75	0xbcfcf903	-0.030880457
76	0x3dfa71db	0.122287475
77	0x3b9099f7	0.0044128853
78	0x3dd2fb5f	0.103018515
79	0x3d8bc319	0.06824321
80	0x3d35f023	0.044418465
81	0x3e2bfd68	0.16795886
82	0xbd88fae9	-0.06688482
83	0x3d3e0c7e	0.046398632
84	0xbddd8e64	-0.108181745
85	0x3d3af12b	0.045640152
86	0x3d34c959	0.044137333
87	0x3cb9a814	0.022663154
88	0x3c7ea06e	0.015541179
89	0xbda6f269	-0.08151705
90	0x3dff1dc2	0.12456848
91	0x3de23425	0.11045102
92	0x3e507e7f	0.20360754
93	0x3dc7ef4f	0.09762441
94	0x3e07c991	0.13260485
95	0xbcfe8335	-0.031068424
96	0x3d9253ad	0.07144866
97	0x3d5535eb	0.052053373
98	0xbbfcd9de	-0.0077164015
99	0xbd1a7ed9	-0.037718628
100	0x3df836d8	0.121198356
101	0xbd0fa96e	-0.03507369
102	0x3da306f5	0.07960311
103	0x3dd537eb	0.10411056
104	0xbd28753b	-0.041127425
105	0xbc07dfa6	-0.008293068
106	0x3d9dda3f	0.07707643
107	0x3d3ec39a	0.04657326
108	0x3cf867b7	0.030322893
109	0xbc4f51cf	-0.012653782
110	0xbe46b167	-0.19403611
111	0x3dcf4581	0.10120679
112	0xbde01435	-0.10941354
113	0xbe1960a3	-0.1497827
114	0xbdd6c280	-0.10486317
115	0xbbfb4a9f	-0.0076688076
116	0xbdd69149	-0.1047693
117	0xbb657451	-0.0035011957
118	0xbd5e4c91	-0.05427224
119	0xbd0a3c8c	-0.03374915
120	0x3e2a9ee1	0.1666217
121	0x3bc98d5a	0.0061508836
122	0xbc89eae6	-0.016835641
123	0x3ce23cf8	0.027616963
124	0xbd864aa0	-0.06557202
125	0xbe1a8d6a	-0.15093008
126	0x3cb9ceca	0.022681613
127	0x3dbf27b3	0.09333744
128	0xbc93db19	-0.01804881
129	0x3d858e95	0.06521336
130	0x3c4c9cf7	0.012488595
131	0xbd442244	-0.04788424
132	0x3c3b0bdb	0.011416401
133	0x3d145c0c	0.036220595
134	0xbc9cd9be	-0.019146796
135	0x3c91a071	0.0177767
136	0x3dab40ea	0.08361991
137	0xbcf7c466	-0.030245017
138	0x3c4c7378	0.012478702
139	0x3d185811	0.03719336
140	0xbe11d966	-0.14243087
141	0x38979b28	7.229141e-05
142	0x3cf2803a	0.029602159
143	0x3def4ab7	0.116841726
144	0x3daa962d	0.08329425
145	0xbda31e56	-0.079647705
146	0xbd6d0074	-0.05786176
147	0x3cec094b	0.028813025
148	0x3da5d3f6	0.08097069
149	0x3dd3d3fb	0.103431664
150	0xbdb6ae27	-0.08919936
151	0x3d836219	0.06415195
152	0xbc8783e1	-0.016542377
153	0xbd3ae957	-0.045632686
154	0x3c40015b	0.011719073
155	0xbd111572	-0.035420842
156	0x3d349e61	0.044096354
157	0x3d1b44fd	0.03790759
158	0xbd4bcded	-0.049756933
159	0xbd85821f	-0.06518959
160	0xbd8de93a	-0.0692925
161	0x3da94929	0.08265907
162	0xbe50a26f	-0.20374463
163	0xbd813e88	-0.06310755
164	0x3c9d8aa4	0.019231148
165	0x3c8120ac	0.01576265
166	0xbcd70433	-0.02624712
167	0xbd394be1	-0.04523838
168	0xbcb28d89	-0.021796005
169	0x3c585129	0.013202944
170	0xbbc3a198	-0.005970191
171	0x3dc57752	0.09641899
172	0xbd017895	-0.031609137
173	0x3c1f97e4	0.009740803
174	0xbd34d1b9	-0.04414532
175	0xbc22e5e3	-0.009942505
176	0xbd5035d6	-0.050832592
177	0x3d4d1f86	0.05007889
178	0x3d6faa60	0.05851209
179	0x3cf2472c	0.029574953
180	0xbdde17f7	-0.10844415
181	0x3cb6c3f0	0.022310227
182	0x3d5a20f5	0.053254087
183	0x3e8c7ffc	0.27441394
184	0xbcb52968	-0.02211447
185	0x3cbf5c57	0.02335946
186	0x3d60ce15	0.054884035
187	0x3e07508c	0.1321432
188	0x3cb4f242	0.022088174
189	0xbd5fd7c5	-0.054649133
190	0xbdaae2d4	-0.08344045
191	0x3dee0ef2	0.11623944
192	0xbdf1b449	-0.11801965
193	0x3c9ff306	0.019525062
194	0x3b4940d2	0.0030708802
195	0x3d31788e	0.04332786
196	0xbc728421	-0.01480201
197	0x3d8f4580	0.06995678
198	0xbc1826f5	-0.009286632
199	0x3d2063f3	0.03915782
200	0x3df6333c	0.12021491
201	0x3d821f8e	0.06353675
202	0x3c715bff	0.014731406
203	0x3d12d829	0.035850678
204	0xbd3ac0ec	-0.04559414
205	0xbd6302ba	-0.055422522
206	0xbd89e021	-0.06732202
207	0xbe786735	-0.2425812
208	0xbd264ef2	-0.040602632
209	0xbc9fb9d0	-0.019497782
210	0xbdde13c3	-0.10843613
211	0x3da62680	0.08112812
212	0x3e2af551	0.16695143
213	0x3bfb5d59	0.00767104
214	0xbe7d5496	-0.24739298
215	0x3ce9537c	0.028482191
216	0xba1ff7a7	-0.0006102272
217	0x3d9e7db6	0.07738821
218	0x3de37eb2	0.111081496
219	0x3e1101ad	0.14160796
220	0x3d0e379c	0.034721002
221	0xbcc7eb93	-0.024404323
222	0x3d11bdfa	0.035581566
223	0x3ddcd59d	0.10782931
224	0x3da1111c	0.078645915
225	0xbd5b4b61	-0.053538684
226	0x3d2d2a55	0.0422767
227	0x3e23bdb2	0.15990332
228	0x3d6b67b6	0.057471953
229	0xbcd7ee22	-0.026358668
230	0x3e29bfc4	0.16577059
231	0x3d63b15a	0.055589058
232	0x3cf925dd	0.030413562
233	0xbdc9c20d	-0.098514654
234	0xbe63a2de	-0.22230098
235	0x3a985571	0.0011622143
236	0x3d527cb0	0.051388443
237	0xbd5c1b18	-0.053736776
238	0xbd42f83e	-0.047600023
239	0xbd361af9	-0.044459317
240	0xbd9891d0	-0.074496865
241	0x3b794118	0.0038033184
242	0x3dc2d757	0.09513729
243	0xbdb4ec30	-0.08834112
244	0xbd37840c	-0.044803664
245	0x3dd8521f	0.10562538
246	0x3d75dc59	0.060024593
247	0xbd052541	-0.03250623
248	0xbd2fcd9e	-0.0429207
249	0xbc4b3174	-0.012401927
250	0xbe33b49c	-0.17549366
251	0x3a382416	0.000702442
252	0xbdb326d0	-0.08747637
253	0xbd8daa7c	-0.06917283
254	0x3d7e7b4b	0.0621293
255	0x3cfd973b	0.030955901

conv4.bias f4 [32]
0	0x387d616b	6.0410628e-05
1	0xb9b7c8f5	-0.00035054205
2	0xbca31a0e	-0.019909885
3	0xb7f4db6d	-2.9189245e-05
4	0x37768d93	1.4695705e-05
5	0x3e624b55	0.2209905
6	0x3ea07ef8	0.3134687
7	0xb756339a	-1.2767408e-05
8	0xb9f392ff	-0.00046458092
9	0x38742bc8	5.8214908e-05
10	0xb791b9c1	-1.7371845e-05
11	0xbb38d375	-0.002820221
12	0x3da34957	0.07972973
13	0xb4e1b86a	-4.2043695e-07
14	0x3d2e9f3c	0.042632326
15	0xb75e5478	-1.3251898e-05
16	0x3a23aea9	0.0006243983
17	0x3dbb2fdb	0.09139987
18	0x39330c6c	0.00017075398
19	0x3b7dd0e6	0.003872925
20	0x3b57301d	0.0032835074
21	0x3d9d6634	0.07685509
22	0x3d154a6e	0.036447935
23	0x3ea97d19	0.33103254
24	0xb93a2486	-0.00017751948
25	0x3d9535fb	0.072856866
26	0xb67acba0	-3.7371428e-06
27	0x39314431	0.00016905439
28	0xb72cca9a	-1.0299171e-05
29	0xb9be6730	-0.00036316505
30	0xb7d9f795	-2.5983705e-05
31	0x3bffb364	0.0078033675

conv4_bn.weight f4 [32]
0	0x3f800000	1.0
1	0x3f800000	1.0
2	0x3f800000	1.0
3	0x3f800000	1.0
4	0x3f800000	1.0
5	0x3f800000	1.0
6	0x3f800000	1.0
7	0x3f800000	1.0
8	0x3f800000	1.0
9	0x3f800000	1.0
10	0x3f800000	1.0
11	0x3f800000	1.0
12	0x3f800000	1.0
13	0x3f800000	1.0
14	0x3f800000	1.0
15	0x3f800000	1.0
16	0x3f800000	1.0
17	0x3f800000	1.0
18	0x3f800000	1.0
19	0x3f800000	1.0
20	0x3f800000	1.0
21	0x3f800000	1.0
22	0x3f800000	1.0
23	0x3f800000	1.0
24	0x3f800000	1.0
25	0x3f800000	1.0
26	0x3f800000	1.0
27	0x3f800000	1.0
28	0x3f800000	1.0
29	0x3f800000	1.0
30	0x3f800000	1.0
31	0x3f800000	1.0

conv4_bn.bias f4 [32]
0	0x00000000	0.0
1	0x00000000	0.0
2	0x00000000	0.0
3	0x00000000	0.0
4	0x00000000	0.0
5	0x00000000	0.0
6	0x00000000	0.0
7	0x00000000	0.0
8	0x00000000	0.0
9	0x00000000	0.0
10	0x00000000	0.0
11	0x00000000	0.0
12	0x00000000	0.0
13	0x00000000	0.0
14	0x00000000	0.0
15	0x00000000	0.0
16	0x00000000	0.0
17	0x00000000	0.0
18	0x00000000	0.0
19	0x00000000	0.0
20	0x00000000	0.0
21	0x00000000	0.0
22	0x00000000	0.0
23	0x00000000	0.0
24	0x00000000	0.0
25	0x00000000	0.0
26	0x00000000	0.0
27	0x00000000	0.0
28	0x00000000	0.0
29	0x00000000	0.0
30	0x00000000	0.0
31	0x00000000	0.0

conv4_bn.running_mean f4 [32]
0	0x00000000	0.0
1	0x00000000	0.0
2	0x00000000	0.0
3	0x00000000	0.0
4	0x00000000	0.0
5	0x00000000	0.0
6	0x00000000	0.0
7	0x00000000	0.0
8	0x00000000	0.0
9	0x00000000	0.0
10	0x00000000	0.0
11	0x00000000	0.0
12	0x00000000	0.0
13	0x00000000	0.0
14	0x00000000	0.0
15	0x00000000	0.0
16	0x00000000	0.0
17	0x00000000	0.0
18	0x00000000	0.0
19	0x00000000	0.0
20	0x00000000	0.0
21	0x00000000	0.0
22	0x00000000	0.0
23	0x00000000	0.0
24	0x00000000	0.0
25	0x00000000	0.0
26	0x00000000	0.0
27	0x00000000	0.0
28	0x00000000	0.0
29	0x00000000	0.0
30	0x00000000	0.0
31	0x00000000	0.0

conv4_bn.running_var f4 [32]
0	0x3f800000	1.0
1	0x3f800000	1.0
2	0x3f800000	1.0
3	0x3f800000	1.0
4	0x3f800000	1.0
5	0x3f800000	1.0
6	0x3f800000	1.0
7	0x3f800000	1.0
8	0x3f800000	1.0
9	0x3f800000	1.0
10	0x3f800000	1.0
11	0x3f800000	1.0
12	0x3f800000	1.0
13	0x3f800000	1.0
14	0x3f800000	1.0
15	0x3f800000	1.0
16	0x3f800000	1.0
17	0x3f800000	1.0
18	0x3f800000	1.0
19	0x3f800000	1.0
20	0x3f800000	1.0
21	0x3f800000	1.0
22	0x3f800000	1.0
23	0x3f800000	1.0
24	0x3f800000	1.0
25	0x3f800000	1.0
26	0x3f800000	1.0
27	0x3f800000	1.0
28	0x3f800000	1.0
29	0x3f800000	1.0
30	0x3f800000	1.0
31	0x3f800000	1.0
